model.pt (torch, 41868 bytes, 2 tensors)

layer.weight f4 [100, 100]
000000 00 5c 19 3a 3a 7e eb 3c ba e6 46 3d 8b 83 86 3d
       0.0005850196 0.028746713 0.04855988 0.065680586
000010 4d 0b 9e 3d 5b 2d 90 3d 47 b7 07 3d 8d 8c b7 3d
       0.07716999 0.07039901 0.03313377 0.08962355
000020 f5 7f a9 3d ed f7 d7 bc 45 58 c5 bd 02 6a b0 3d
       0.08276359 -0.026363337 -0.09635977 0.086139694
000030 d7 39 a4 bd 6d bb 00 bd b7 d6 9f bd 6a 8e c6 3d
       -0.080188446 -0.031428743 -0.078046255 0.09695132
000040 9a fa 96 3d 87 7c 32 3d 0d bf 77 3d 5d ea ba 3d
       0.07372017 0.04357579 0.060484935 0.091267325
000050 5b 7a 86 bd 1a a6 7b bc b0 d4 32 bd 93 45 90 bc
       -0.06566306 -0.015359426 -0.043659866 -0.0176113
000060 33 a7 8b 3c cf 56 8c bd 00 c8 73 3a b3 6e 2c 3d
       0.0170475 -0.06852495 0.00092995167 0.04209776
000070 bd f6 c2 3d cd ca 63 3c fa f6 96 bd f3 f1 bb bc
       0.09519718 0.013903332 -0.07371326 -0.022942519
000080 d7 bb c3 3d e3 a7 7e 3d e7 93 5f 3c 3a 68 80 bd
       0.09557312 0.062171828 0.0136461025 -0.0626988
000090 80 aa be 3d 77 e3 28 3d 9f 3f 92 3d 67 75 4a 3c
       0.09309864 0.041232552 0.07141041 0.012357092
0000a0 73 a4 d0 bc d0 7b 17 3d 93 83 a8 3d 48 06 97 bd
       -0.02546904 0.03698331 0.08228221 -0.07374245
0000b0 a0 89 ad 3d ad eb 6d 3d 17 4b 0f bd d8 db ca bd
       0.084735155 0.058086086 -0.03498372 -0.09905213
0000c0 93 56 33 bd b0 a4 48 3d d3 ec 4f bd 47 bf 89 3c
       -0.043783735 0.048985183 -0.050762963 0.016814841
0000d0 28 52 a2 bd 6d 25 5d bd 97 95 1e 3d ea ec 53 bd
       -0.07925826 -0.05399077 0.03871688 -0.05173961
0000e0 d3 58 a3 3c e7 7e c5 3b 7a 09 89 3d e0 d7 b9 bc
       0.019939816 0.006027091 0.06691261 -0.022685945
0000f0 20 24 9f bc b0 83 9f 3d 43 04 91 3d b3 f4 75 3c
       -0.019426405 0.07788789 0.07080891 0.015011954
000100 48 72 91 3d a0 8d c0 bd fa 9b f0 3c f3 b5 b3 3c
       0.071018755 -0.09402013 0.02937125 0.021937346
000110 80 bf 41 bd 80 8c 71 3d 70 5e aa bd ad 49 41 3d
       -0.04730177 0.058971882 -0.08318794 0.047189403
000120 87 c1 62 3d e0 76 8b bd 33 d6 d6 3b 00 38 33 bd
       0.055360343 -0.06809783 0.0065562963 -0.043754578
000130 4a fc 6e 3d 8d e7 02 bd 07 bb 60 bd 33 1d 83 3a
       0.05834607 -0.031959105 -0.054865863 0.0010003209
000140 2a 78 cb 3d 4d e0 e8 bc 7f 5a be bd 8a be 5e 3d
       0.09935029 -0.028427267 -0.092946045 0.05438093
000150 4f 48 8b 3d f3 c1 b2 bc 53 21 a7 bc 47 62 0a bd
       0.06800901 -0.021820998 -0.020401632 -0.03378513
000160 67 7f 40 bc 17 e1 a8 bd e8 1f 94 bd 90 5d 79 bd
       -0.011749125 -0.082460575 -0.07232648 -0.060880244
000170 83 26 a3 bd 6d 16 98 3d e7 b2 6e 3d 1f d2 c9 3d
       -0.0796633 0.074261524 0.058276083 0.098545305
000180 85 a3 b3 bd c7 1f c6 bd 8f c6 cc 3d 93 f5 d2 3c
       -0.08771423 -0.0967403 0.099988095 0.025751865
000190 c0 ca ed bc 40 a8 9c 3c 5d b5 64 bd da 83 9e bc
       -0.029027343 0.019123197 -0.055837024 -0.019349981
0001a0 f3 f5 82 bd ba ee af 3d a0 82 fe bc e7 10 95 bb
       -0.06394567 0.08590455 -0.031068146 -0.004549134
0001b0 ba 6e 75 3d ba 4d 32 3d f3 c0 e4 bc 3f 3c 8d 3d
       0.05992005 0.043531157 -0.027924037 0.06896257
0001c0 3d bf 56 3d 47 3b 87 3d 17 42 05 bd ca 10 7c 3d
       0.052428473 0.06603103 -0.03253373 0.06153945
0001d0 40 cf 1f bc 93 b8 d3 bc 33 7e 11 3d a0 9a df bc
       -0.009754002 -0.025844848 0.035520744 -0.02729541
0001e0 a3 8c 07 3d 53 d8 5a bd 9f f8 c5 bd 47 8e 97 3c
       0.033093106 -0.05342896 -0.09666561 0.01850046
0001f0 0d 22 89 3c 8d bb 41 3c 37 02 4b 3d b3 84 38 3c
       0.01673987 0.011824501 0.04956266 0.011262107
000200 fd 87 c5 bd a8 a2 b2 bd e0 2d 4d bd 0f 57 9a bd
       -0.09645078 -0.087224305 -0.050092578 -0.07536136
000210 9a 93 3d bc b5 ec ba 3d c0 ac 11 3c 67 00 c6 bd
       -0.0115708355 0.091271795 0.0088912845 -0.096680455
000220 e0 58 8d bd 73 c4 7e bd b0 e1 40 bd 67 89 8b bd
       -0.06901717 -0.062199067 -0.047090232 -0.06813317
000230 2f 58 c0 3d 9a 5f fc 3c f2 9e b5 3d fd 3c 88 3d
       0.0939182 0.030807305 0.08868207 0.066522576
000240 e0 c2 73 3d cd 90 52 bd 7a 9c bc bd 9a 98 7e 3c
       0.05951202 -0.051407624 -0.09209533 0.015539313
000250 da 35 77 3c 1b 7b 87 bd 9a ce 4d 3c 8f cf a6 3d
       0.015088523 -0.066152774 0.012561465 0.081450574
000260 ed 83 98 3c 53 6d ea 3c 65 c3 c4 bd 1a 31 ed bc
       0.018617595 0.028616583 -0.09607581 -0.028954078
000270 4d a2 3c bd 00 c8 b3 b9 c0 80 89 bc cd cc d5 3c
       -0.04605322 -0.00034290552 -0.016785026 0.026098633
000280 40 6f b2 bd 6d 95 2d bd c3 25 31 bd 3a dc a5 bd
       -0.087126255 -0.04237883 -0.043248903 -0.080986455
000290 a0 c8 05 3d 10 3e be 3d 43 e7 29 bd 13 e3 a8 bc
       0.032662034 0.09289181 -0.041480314 -0.02061609
0002a0 b7 b4 21 bd 1a f1 ae bc 93 32 2c bd 2a 6f c1 bd
       -0.039478984 -0.0213552 -0.04204042 -0.09445031
0002b0 e3 6e a0 bd 2d 96 01 3d 67 01 cf 3c aa 03 1e 3d
       -0.0783365 0.03163736 0.025269223 0.038577713
0002c0 00 5c a5 3d ad 5e 8a 3c 4d fa e0 bb 1a b2 32 3c
       0.08074188 0.016890848 -0.0068657757 0.0109067205
0002d0 23 40 7a 3d cd 70 e9 3a 6d 3d ab 3d 12 a3 c9 3d
       0.06109632 0.0017810107 0.083613254 0.09845556
0002e0 9b f5 c2 3d 5a 39 32 3d d3 93 d7 3c 38 89 a9 3d
       0.09519502 0.043511726 0.026315605 0.082781255
0002f0 d3 e7 9d bd 87 15 b3 3d 37 3b 86 3d d0 63 55 bd
       -0.077102326 0.087443404 0.06554263 -0.05209714
000300 fa 6a 86 3c 40 2f 83 bd 3d 57 c1 3d d3 fa c6 bd
       0.016408432 -0.064054966 0.094404675 -0.0971581
000310 0f c3 c1 3d 33 a8 4d bc 0a 2f b7 3d aa ef 8a bd
       0.094610326 -0.012552309 0.08944519 -0.067839935
000320 87 e4 5f bd b3 a7 b1 bd 00 b3 91 3c 5a 14 aa bc
       -0.0546613 -0.08674564 0.01778555 -0.020761658
000330 ca 0f 10 bd 2a fa 89 3d 90 dd 4e bd b3 be 26 bd
       -0.035171308 0.06737168 -0.050504267 -0.04070921
000340 67 79 8d 3c fd fe 31 bd 7b 28 89 bd a7 61 3a 3d
       0.017269803 -0.043456066 -0.06697174 0.045503285
000350 ed 04 c2 bc ad b0 2a bd b7 c3 b6 bd 3a 57 8f bd
       -0.02368399 -0.041672397 -0.089240484 -0.06999059
000360 4d 7c f6 3b 3d 97 7c 3d fa d5 61 3d 9a 12 0d 3b
       0.007522142 0.06166767 0.055135705 0.002152598
000370 cf 87 8f 3d 9b 82 a5 3d 1a 76 bc bd 0d 13 47 bd
       0.07008325 0.08081552 -0.092022136 -0.048602153
000380 3d a9 93 bd 73 e6 0d 3c a7 fc 32 3d c5 10 c0 bd
       -0.07210014 0.0086609 0.04369798 -0.093781985
000390 6b 05 90 bd 8a 6d 5c 3d 60 1a 7e bd 33 23 bd b9
       -0.070322834 0.053815402 -0.062036872 -0.00036075115
0003a0 e2 1b 9c bd c3 7f 10 bd d3 2b 8d 3d c0 f6 57 3d
       -0.07622506 -0.035278093 0.068931244 0.052725554
0003b0 00 03 b5 bb fa 4c 49 3d 0a 77 02 bd f5 95 94 bd
       -0.0055240393 0.049145676 -0.031851806 -0.072551645
0003c0 cd 84 02 3a 72 9e 96 bd 9a 2b 5e 3c 85 e9 af 3d
       0.00049788953 -0.0735444 0.0135602 0.08589462
0003d0 80 49 f0 bb 65 98 8c bd e2 64 ca 3d f5 2a b9 bd
       -0.0073329806 -0.068650045 0.09882523 -0.090413965
0003e0 5d 11 7d bd 57 cf 26 3d 93 bf 48 bd c7 8c 10 bd
       -0.061784137 0.04072508 -0.049010824 -0.035290506
0003f0 a0 ac b7 bc e7 a8 58 3d dd a7 97 3d ed 17 89 bc
       -0.022421181 0.052895453 0.07405064 -0.016735042

layer.bias f4 [100]
000000 67 4c bf bd b0 95 62 3d 7d 77 61 bd 57 2e cb bd
       -0.093407445 0.055318534 -0.055045594 -0.09920948
000010 70 82 aa bd 62 35 8e 3d 80 aa 29 bc 50 04 5d 3d
       -0.0832566 0.06943776 -0.010355592 0.05395919
000020 b3 9b ff 3b c7 cd a5 3c f3 e2 6c bc c0 36 98 bc
       0.007800543 0.020239724 -0.014458406 -0.018580794
000030 17 a6 93 3d 93 2b bb bd b3 d8 d5 3b e7 22 58 bd
       0.072094135 -0.091391705 0.0065260767 -0.05276766
000040 9d 0d cb bd 9d d8 54 3d c0 9f 11 bd b2 6d 9f 3d
       -0.09914706 0.05196439 -0.03555274 0.077845946
000050 a2 8a 9c bd 0d 1c 9f bd 57 5c 63 bd 80 ac fb 3b
       -0.076436296 -0.07769022 -0.055507984 0.0076804757
000060 b3 25 17 bc d3 d0 c5 3d 47 24 59 bd a3 76 3d bd
       -0.009225297 0.09658971 -0.053013112 -0.04625572
000070 30 58 cb bd 7d df ae 3d 5a 3c 2c 3c a0 e6 61 bd
       -0.0992893 0.08538721 0.010512436 -0.05515158
000080 bd 2d 44 bd 05 65 8d bd 5d cc 98 3d 0d f9 37 3d
       -0.047895182 -0.069040336 0.07460854 0.044915248
000090 b3 89 10 3d 2d 2e e0 3c ad 4f ae 3c b5 3e a6 bd
       0.03528757 0.027365768 0.021278227 -0.08117429
0000a0 fd 69 ae 3d 0d ac 10 bd bd 59 c7 bd dd ed 97 3d
       0.085163094 -0.03532033 -0.09733913 0.07418416
0000b0 9a ed ad 3b 87 25 ca 3c 6a 9c 49 bd 57 84 07 bd
       0.0053078653 0.024676098 -0.049221434 -0.033085193
0000c0 5b c2 c8 bd 40 ab b9 bd 57 98 41 bd 13 32 3b bd
       -0.09802695 -0.090658665 -0.047264423 -0.04570205
0000d0 20 63 f0 3c e0 45 0e bd 4d 3e cc 3d 4d 43 bc 3d
       0.029344141 -0.034734607 0.099728204 0.09192524
0000e0 8a d6 74 3d b7 58 a7 3d 4d f5 a9 3b ad f7 76 3d
       0.059774913 0.08171218 0.005186713 0.060294796
0000f0 5a 4c 91 3d 7a ac df bc 95 10 a4 bd a2 41 99 bd
       0.07094641 -0.027303923 -0.08010975 -0.074832216
000100 50 e4 98 bd 53 2a ef 3c 67 d2 f5 3c 9a 2f a4 3a
       -0.07465422 0.029194986 0.030007554 0.0012526393
000110 13 a2 90 3d a7 c0 63 3d 93 ab 59 3d 13 0b b8 bd
       0.07062163 0.05560365 0.05314214 -0.08986487
000120 0d 7c 11 3c 40 83 a4 bc 30 1a 1d bd 42 be c6 bd
       0.008879674 -0.020082116 -0.038355052 -0.097042575
000130 a7 f5 e0 3c e0 c4 91 3c ed 5c 93 bc 0a c9 cb 3d
       0.027460886 0.017794073 -0.017988646 0.099504545
000140 a7 fd 09 3c da 39 6e bc e2 61 98 bd 9a dc 6a bc
       0.008422292 -0.01454016 -0.07440545 -0.014334822
000150 13 06 c7 3c 3a bf f1 bc 57 50 8d 3d b3 92 85 bc
       0.024294889 -0.02951013 0.06900089 -0.016305303
000160 cf 30 88 bd c7 70 d1 3c e8 98 a7 bd 1d 1d 02 3d
       -0.066499345 0.025566472 -0.081834614 0.031766046
000170 5a f2 39 3d 9a 0e 85 bd 0a bc 8b 3d 67 e6 05 bc
       0.04539714 -0.06496926 0.06822975 -0.008172608
000180 fd 7c 2c 3d a0 d9 9e 3c 67 38 eb 3a 00 40 ec b8
       0.042111386 0.019390881 0.0017945886 -0.00011265278
